assets/model/model.tflite (tflite, 6456 bytes, 6 tensors)

sequential/dense/BiasAdd/ReadVariableOp f4 [20]
-0.00085060875 -0.15653643 0.10488524 -0.31462127 0.071143605 -0.15457354 -0.15924636 -0.22488639
-0.21422583 -0.1451764 -0.22224526 -0.3885064 0.053166088 -0.045132846 -0.18935381 -0.3497196
-0.3840013 -0.29058078 -0.12656361 -0.032223564
00000000: 63fb 5eba 164b 20be 13ce d63d 0a16 a1be
00000010: bdb3 913d 8748 1ebe 7a11 23be 9e48 66be
00000020: 045e 5bbe 1fa9 14be 4394 63be 50ea c6be
00000030: afc4 593d 38dd 38bd f7e5 41be 730e b3be
00000040: d29b c4be 01c7 94be e499 01be dbfc 03bd

sequential/dense_2/BiasAdd/ReadVariableOp f4 [2]
0.17668612 -0.17668606
00000000: 35ed 343e 31ed 34be

sequential/dense_1/BiasAdd/ReadVariableOp f4 [10]
0.33863962 -0.0004883284 0.50250965 0.440594 -0.0017339975 0.004668982 0.04285193 0.03632186
0.51011866 0.40900034
00000000: 2c62 ad3e 2a03 00ba 79a4 003f 8995 e13e
00000010: 4d47 e3ba 42fe 983b 8185 2f3d 3bc6 143d
00000020: 2397 023f 7e68 d13e

sequential/dense/MatMul f4 [20, 42]
-0.30801293 0.16880417 -0.015431097 0.29637343 -0.038916524 0.28141704 -0.08836318 0.1373711
0.23410875 0.038517736 0.00097569264 -0.19756386 0.11479623 -0.114982426 -0.19918045 -0.44284987
-0.1672662 0.07066668 -0.017665086 0.10680909 0.23112938 0.0979077 0.21271412 0.20075607
0.083696194 0.109402016 -0.37089816 0.13152629 0.07358408 0.115264475 0.22822368 0.22621529
-0.10762016 0.0384744 -0.22220576 -0.0014658821 -0.14930677 -0.2156352 -0.32637924 0.26889107
0.112643905 -0.3801458 -0.14224938 0.28990626 -0.39044046 -0.055582765 -0.29658017 0.19089366
0.06094541 -0.076333225 -0.065469205 -0.18476862 0.14556202 0.15522896 0.15822652 -0.017575338
0.3469707 -0.07391508 0.25941995 0.08145878 0.095386416 0.053156856 -0.00035258065 0.09741583
-0.2936778 0.06724957 -0.30945417 0.041215286 0.42424214 0.09290296 -0.07824346 -0.07673943
0.1941442 0.07601887 -0.06480346 0.029669095 0.12826279 -0.15823123 0.08839499 -0.071975164
-0.18848568 0.11896338 0.14159568 -0.14431995 0.1590904 0.28699404 -0.06793016 -0.18533354
-0.09775003 -0.44704238 0.015239535 -0.036727786 -0.006592921 -0.16646859 0.095754236 -0.034642655
0.034538347 0.011247463 0.05124149 0.12253705 0.019787312 0.12741996 -0.1322294 -0.021384012
-0.052542977 0.046616327 0.24232513 0.068390265 0.6109282 -0.19295666 -0.13371761 0.21085279
-0.11153166 0.2369954 0.014163495 0.1046379 -0.111303076 0.2161364 -0.2714418 0.31666398
-0.064357266 0.4568285 -0.044076815 0.16622384 -0.08936821 0.29465234 -0.011515498 0.07079977
-0.05705141 0.07955726 0.19770448 0.036165237 0.09711259 0.014044402 0.087105714 0.044900686
-0.08517774 0.030101947 0.07278225 0.014449485 -0.071690165 0.023423396 -0.018227983 0.010135342
0.14082372 0.038329665 0.0063940273 -0.017175857 -0.40108073 -0.82630515 -0.26722568 -0.040709242
-0.044609062 0.06061807 0.077652834 0.02106983 0.026089525 -0.027094038 -0.115875416 0.16535759
-0.012342446 0.039557453 0.09257191 0.10661948 0.08768541 0.09296854 0.14563574 0.17605928
-0.0343135 -0.28549343 0.11308759 -0.20289919 -0.15745328 0.07864019 -0.015092183 0.0026434946
0.33468574 0.19534835 0.031084104 0.14711052 -0.045767885 0.053254925 0.2532383 -0.06055968
0.25437534 -0.10502534 0.13228555 0.15070842 0.1471455 -0.07523058 -0.16223638 0.22244982
-0.30524692 0.17230795 0.39488643 -0.08065514 0.29358882 -0.16173467 -0.14739226 0.10532515
0.114575125 0.02770521 -0.08222421 0.14304423 -0.18339822 -0.21000828 -0.20860718 0.08350901
0.21708107 -0.21356426 0.089467764 0.12942111 -0.038228456 -0.086710684 0.14242163 0.011048893
0.105095886 -0.06909961 0.04199158 0.1590244 -0.035862178 -0.16136855 0.0632688 0.03321263
0.010430625 0.07900203 0.016465092 0.095469356 -0.07687858 0.0016111418 -0.022809321 -0.73263603
-0.32226002 0.77035713 -0.09603774 0.98052776 -0.09542677 -0.0017493331 0.005299478 0.060155936
0.04366012 -0.25877345 -0.12967354 0.023044573 -0.011117394 -0.042446874 -0.028254105 0.08260105
0.00722747 0.12266224 0.21830253 0.30616915 0.07856965 0.282665 0.024917675 0.09079369
00000000: dfb3 9dbe 00db 2c3e b6d2 7cbc 42be 973e
00000010: ef66 1fbd e515 903e c1f7 b4bd 02ab 0c3e
00000020: 34ba 6f3e c6c4 1d3d a0c5 7f3a 2e4e 4abe
00000030: 491a eb3d e87b ebbd f6f5 4bbe 38bd e2be
00000040: d547 2bbe b1b9 903d 5fb6 90bc b9be da3d
00000050: 2ead 6c3e d583 c83d bbd1 593e 0093 4d3e
00000060: e968 ab3d 2a0e e03d 5de6 bdbe d4ae 063e
00000070: 40b3 963d c80f ec3d 78b3 693e fba4 673e
00000080: f567 dcbd 5597 1d3d e889 63be d722 c0ba
00000090: e0e3 18be 79cf 5cbe 2e1b a7be 17ac 893e
000000a0: d9b1 e63d 78a2 c2be d2a9 11be 986e 943e
000000b0: d0e7 c7be c1aa 63bd 5bd9 97be a179 433e
000000c0: e5a1 793d 9854 9cbd b814 86bd fc33 3dbe
000000d0: 360e 153e 57f4 1e3e 2206 223e 28fa 8fbc
000000e0: 25a6 b13e ca60 97bd b1d2 843e dcd3 a63d
000000f0: f459 c33d 01bb 593d 93da b8b9 f381 c73d
00000100: f05c 96be 24ba 893d c770 9ebe 5cd1 283d
00000110: 4436 d93e e843 be3d 1b3e a0bd 9029 9dbd
00000120: bdcd 463e c8af 9b3d adb7 84bd 9a0c f33c
00000130: 5257 033e 5e07 22be 6f08 b53d b767 93bd
00000140: 6402 41be 13a3 f33d 75fe 103e 9cc8 13be
00000150: 98e8 223e e2f0 923e f81e 8bbd 13c8 3dbe
00000160: 2b31 c8bd bde2 e4be 3eaf 793c e06f 16bd
00000170: 6e09 d8bb be76 2abe cc1a c43d 75e5 0dbd
00000180: 1578 0d3d 4747 383c 99e2 513d b4f4 fa3d
00000190: 0019 a23c 617a 023e 2567 07be 862d afbc
000001a0: 4e37 57bd c3f0 3e3d 1424 783e 3210 8c3d
000001b0: ca65 1c3f 6e96 45be 45ed 08be cbe9 573e
000001c0: b66a e4bd ecae 723e 010e 683c 654c d63d
000001d0: def2 e3bd dc52 5d3e 6bfa 8abe c821 a23e
000001e0: becd 83bd 6de5 e93e e489 34bd 9536 2a3e
000001f0: ae06 b7bd acdc 963e 80ab 3cbc 78ff 903d
00000200: bdae 69bd ebee a23d 0b73 4a3e 0022 143d
00000210: f7e2 c63d 7e1a 663c 7b64 b23d c8e9 373d
00000220: ab71 aebd 5c98 f63c dc0e 953d 88bd 6c3c
00000230: 4bd2 92bd 6ce2 bf3c da52 95bc b50e 263c
00000240: 1834 103e 91ff 1c3d fd84 d13b 62b4 8cbc
00000250: 745a cdbe bc88 53bf ced1 88be bcbe 26bd
00000260: feb7 36bd a74a 783d 7308 9f3d a39a ac3c
00000270: b3b9 d53c 51f4 ddbc 1750 edbd 8053 293e
00000280: f837 4abc ff06 223d 5796 bd3d 505b da3d
00000290: 6994 b33d 4a66 be3d 8921 153e e248 343e
000002a0: 508c 0cbd 322c 92be 779a e73d cec4 4fbe
000002b0: 6f3b 21be 1c0e a13d 3445 77bc 7b3e 2d3b
000002c0: ee5b ab3e 6609 483e 17a4 fe3c 24a4 163e
000002d0: 1b77 3bbd d621 5a3d 73a8 813e 6d0d 78bd
000002e0: 7c3d 823e 8717 d7bd dd75 073e 4f53 1a3e
000002f0: 4fad 163e 7e12 9abd 4b21 26be e3c9 633e
00000300: 5349 9cbe 7f71 303e 8e2e ca3e 862e a5bd
00000310: 4651 963e c69d 25be ffed 16be b6b4 d73d
00000320: 5da6 ea3d 09f6 e23c 2b65 a8bd 307a 123e
00000330: becc 3bbe 690c 57be 1f9d 55be c606 ab3d
00000340: 804a 5e3e 97b0 5abe e03a b73d f886 043e
00000350: 7195 1cbd 5f95 b1bd fad6 113e 6b06 353c
00000360: 833c d73d 1984 8dbd 5dff 2b3d 4bd7 223e
00000370: 38e4 12bd cc3d 25be 1393 813d f709 083d
00000380: 36e5 2a3c d1cb a13d cde1 863c 7085 c33d
00000390: 8472 9dbd f32c d33a 9dda babc 098e 3bbf
000003a0: 44ff a4be 2036 453f 6faf c4bd de03 7b3f
000003b0: 1c6f c3bd e149 e5ba 3ea7 ad3b 1266 763d
000003c0: f4d4 323d f47d 84be 24c9 04be f9c7 bc3c
000003d0: bb25 36bc c6dc 2dbd 2775 e7bc bd2a a93d
000003e0: 6ad4 ec3b 5736 fb3d b38a 5f3e 34c2 9c3e
000003f0: 20e9 a03d 78b9 903e 2720 cc3c 0bf2 b93d

sequential/dense_1/MatMul f4 [10, 20]
0.3070455 -0.07341829 0.10660933 -0.2895052 -0.4509982 -0.32547203 -0.18783256 0.052901275
-0.4668855 -0.012012486 -0.5373357 -0.47170988 -0.07326538 -0.08560009 -0.08556523 -0.17313114
-0.60851145 0.06936074 0.24092521 -0.13860244 -0.015859023 -0.29170316 -0.08300056 0.65275574
0.06516885 -0.04676368 -0.19700693 0.32013348 0.78744155 -0.24481434 0.61221975 -0.3296086
0.28268626 0.71331275 -0.1258629 0.40456244 0.49311677 0.6340393 -0.09089486 -0.19833471
0.17540132 0.4364155 -0.4665223 -0.35145804 0.045502428 -0.66377974 -0.5945657 -0.60815704
-0.7071234 -0.18342519 -0.75268143 -0.62836504 -0.026940968 -0.18128759 -0.42463 -0.1144844
-0.7253597 -0.5057996 0.39734152 -0.10361034 0.04344844 0.4825925 -0.3557526 -0.03566526
0.3168352 -0.33706105 -0.23800921 -0.51130754 -0.5147638 -0.5817336 -0.38734442 -0.62006783
-0.1327071 -0.562352 -0.24035305 -0.5871973 -0.7849173 -0.45624614 0.44363075 -0.51828825
0.12733683 0.056753058 -0.28664318 0.23871829 0.014005688 0.30120853 0.54349625 -0.7272079
0.47732332 0.33536994 -0.65005016 0.3891698 0.1587842 -0.16519547 0.64679 0.4095851
-0.68122375 0.61175567 0.05612926 0.11576131 0.14507285 -0.07221115 0.56720406 0.26697913
0.05297042 0.52653027 0.09708563 0.39180723 0.057875086 0.42023185 0.60749155 0.6204494
0.3827199 -0.17690852 -0.30312875 0.50141937 0.89148706 0.3977164 0.038613223 0.35332376
-0.085807696 -0.024367921 -0.47954 0.46601164 -0.08582942 0.005967049 0.5151393 0.48799178
0.4988015 0.2576014 0.62222344 0.21027207 0.26699412 0.08761795 0.6511317 0.3452075
0.9440474 0.05799062 0.08372662 -0.32900965 -0.09602579 -0.09617856 -0.15716851 0.33559832
-0.46410465 -0.32174322 0.641134 0.0045723883 -0.19734709 0.5938525 0.07240386 0.51712763
-0.41215947 -0.07948118 -0.30744714 0.7622153 0.55860037 0.26218718 -0.24333648 -0.555722
0.05099432 0.08250484 0.12436557 0.054304015 -0.02446602 -0.0057313642 -0.5500194 -0.72929424
-0.63885415 -0.070126325 -0.4880428 -0.9017562 -0.24405663 -0.4542987 -0.28953698 -0.5280647
-0.84737986 -0.59137774 -0.3803553 -0.17551085 0.20268242 -0.00264145 -0.16738667 0.121385425
0.030257585 -0.70627433 -0.1931746 -0.62515306 -0.71659076 -0.17160968 -0.7627167 -0.4297713
-0.49449342 -0.4511658 -0.61786 -0.33727333 -0.50143087 -0.51370686 0.38181156 -0.5514024
00000000: 1135 9d3e 545c 96bd fe55 da3d 073a 94be
00000010: 3ce9 e6be 45a4 a6be 2e57 40be 02af 583d
00000020: 9e0b efbe 05d0 44bc d58e 09bf f583 f1be
00000030: 290c 96bd 1a4f afbd d33c afbd 4a49 31be
00000040: 68c7 1bbf 010d 8e3d 19b5 763e cced 0dbe
00000050: c8ea 81bc 1e5a 95be 33fc a9bd 001b 273f
00000060: 3f77 853d 468b 3fbd 2fbc 49be 89e8 a33e
00000070: c595 493f 9cb0 7abe 6fba 1c3f 75c2 a8be
00000080: 41bc 903e aa9b 363f 34e2 00be cf22 cf3e
00000090: cd79 fc3e 6650 223f 1627 babd 4118 4bbe
000000a0: 679c 333e da71 df3e 03dc eebe 4ff2 b3be
000000b0: c160 3a3d 78ed 29bf 7535 18bf 2eb0 1bbf
000000c0: 0a06 35bf d0d3 3bbe bbaf 40bf 88dc 20bf
000000d0: 4eb3 dcbc 74a3 39be 1a69 d9be cc76 eabd
000000e0: 2cb1 39bf 157c 01bf 5970 cb3e a831 d4bd
000000f0: fef6 313d 5d16 f73e 3425 b6be bc15 12bd
00000100: 3938 a23e 4493 acbe b0b8 73be 0de5 02bf
00000110: 8fc7 03bf 7eec 14bf 0252 c6be c4bc 1ebf
00000120: 5fe4 07be 4df6 0fbf 1c1f 76be 9052 16bf
00000130: 57f0 48bf 1899 e9be 9223 e33e 8aae 04bf
00000140: 9664 023e e575 683d e5c2 92be 9172 743e
00000150: 1d78 653c 0138 9a3e 9222 0b3f 4c2a 3abf
00000160: b963 f43e 9cb5 ab3e b069 26bf 4441 c73e
00000170: 5398 223e 0029 29be 0894 253f 23b5 d13e
00000180: ae64 2ebf 059c 1c3f cce7 653d 4414 ed3d
00000190: fa8d 143e 70e3 93bd 4934 113f 7db1 883e
000001a0: 83f7 583d b0ca 063f d5d4 c63d f59a c83e
000001b0: 6d0e 6d3d a128 d73e 9184 1b3f c6d5 1e3f
000001c0: ddf3 c33e 8227 35be b133 9bbe 055d 003f
000001d0: 7f38 643f 7ca1 cb3e e628 1e3d dae6 b43e
000001e0: f2bb afbd 3c9f c7bc 4486 f5be 1499 ee3e
000001f0: 56c7 afbd 3c87 c33b 2be0 033f 0fda f93e
00000200: e962 ff3e 55e4 833e 094a 1f3f 9051 573e
00000210: 74b3 883e 0a71 b33d 91b0 263f 0abf b03e
00000220: 17ad 713f 9387 6d3d dd78 ab3d f473 a8be
00000230: 2ba9 c4bd 44f9 c4bd c8f0 20be 8bd3 ab3e
00000240: 209f edbe 87bb a4be 5c21 243f f9d3 953b
00000250: 5b15 4abe b806 183f 7a48 943d 7a62 043f
00000260: 9106 d3be 07c7 a2bd b669 9dbe 8b20 433f
00000270: 6f00 0f3f 663d 863e 332d 79be cc43 0ebf
00000280: 6cdf 503d 4cf8 a83d 60b3 fe3d e36d 5e3d
00000290: f66c c8bc 2bce bbbb 12ce 0cbf 07b3 3abf
000002a0: f28b 23bf 649e 8fbd bfe0 f9be 7fd9 66bf
000002b0: fbe9 79be d799 e8be 313e 94be 402f 07bf
000002c0: e3ed 58bf 8864 17bf eebd c2be 1eb9 33be
000002d0: fb8b 4f3e 2d1c 2dbb 6967 2bbe ec98 f83d
000002e0: c1de f73c 65ce 34bf 90cf 45be 080a 20bf
000002f0: 7e72 37bf 73ba 2fbe 6741 43bf fc0a dcbe
00000300: 3e2e fdbe 34ff e6be 132c 1ebf 17af acbe
00000310: c65d 00bf 4b82 03bf ce7c c33e b528 0dbf

sequential/dense_2/MatMul f4 [2, 10]
0.42866564 -1.0545465 0.28998497 1.1535457 -1.2449536 -0.8863197 -1.1257964 -1.2156692
0.96852434 0.24763396 -0.47421667 0.42256418 -1.0244629 -0.4165994 0.771574 0.67128736
1.2653484 1.3757111 -0.4208808 -1.110317
00000000: 107a db3e 61fb 86bf e978 943e 63a7 933f
00000010: a45a 9fbf d9e5 62bf 191a 90bf 0c9b 9bbf
00000020: 36f1 773f c293 7d3e 87cc f2be 555a d83e
00000030: 9a21 83bf 844c d5be e085 453f 7dd9 2b3f
00000040: f0f6 a13f 4d17 b03f b07d d7be de1e 8ebf
